My_Models/newLightModel.tflite (tflite, 448180 bytes, 16 tensors)

arith.constant f4 [128]
0	0xbcd16035	-0.02555857
1	0xbc966295	-0.018357554
2	0xbd099903	-0.03359319
3	0xbcfe5323	-0.031045502
4	0xbd87ffcd	-0.06640587
5	0x3cacfd0c	0.021116756
6	0xbd874ad9	-0.06606073
7	0xbd831d54	-0.06402078
8	0xbc425e19	-0.011863255
9	0xbccba441	-0.024858596
10	0xbd5cac71	-0.05387539
11	0xbdb71212	-0.089389935
12	0xbce51d79	-0.027968155
13	0xbd174b2a	-0.036936916
14	0xbd238fea	-0.03993217
15	0x3be87931	0.0070945253
16	0xbd0b0ea2	-0.0339495
17	0xbcd9e25c	-0.026597194
18	0xbcd67140	-0.026177049
19	0xbb3ffc7b	-0.0029294777
20	0xbd05cabb	-0.032664042
21	0xbd93367c	-0.071881264
22	0xbd2d2c84	-0.04227878
23	0xbd1f4a0d	-0.03888898
24	0xbc581af0	-0.013190016
25	0xbcfb0142	-0.030640248
26	0xbba7dcf3	-0.0051227747
27	0xbc862637	-0.016375644
28	0xbb86cc36	-0.0041136993
29	0xbc518475	-0.012787928
30	0xbddcbcd7	-0.10778206
31	0xbd022f8f	-0.031783637
32	0xbc9b60e6	-0.018967103
33	0xbbfffa94	-0.0078118537
34	0xbd038e5a	-0.03211818
35	0xbd0d5b9a	-0.034511186
36	0xbca26168	-0.019821838
37	0x3c055d1f	0.008139878
38	0xbd3224c7	-0.043492105
39	0xbd47c569	-0.04877225
40	0xbd67cc26	-0.056591175
41	0xbdadceca	-0.084867075
42	0xbd8e3cf9	-0.06945223
43	0xbcad3c00	-0.021146774
44	0x3c7744fa	0.015092129
45	0xbd0dcb53	-0.034617733
46	0xbd9a1e7b	-0.07525345
47	0xbd5a3215	-0.05327042
48	0xbdaca824	-0.08430508
49	0xbd41dffe	-0.047332756
50	0xbc4115f9	-0.011785024
51	0x3bd80072	0.00659185
52	0xbc3b79fe	-0.011442659
53	0xbbed98c0	-0.0072508752
54	0xbd88d719	-0.066816516
55	0xbd83049a	-0.06397362
56	0xbc39d427	-0.011342085
57	0xbca656f1	-0.020305129
58	0xbcf64573	-0.030062413
59	0xbd0c8967	-0.034310725
60	0xbccc1436	-0.024911981
61	0xbd355a2c	-0.044275448
62	0xbb9046d1	-0.004402973
63	0xbcfcf51c	-0.030878596
64	0xbd3575cc	-0.044301793
65	0xbc1018fb	-0.008795018
66	0xbc3d8a38	-0.011568598
67	0xbccc7c95	-0.02496175
68	0xbd837ed9	-0.06420679
69	0xbd7ff68f	-0.062490996
70	0xbc15ba3a	-0.009138638
71	0xbdc5835c	-0.096441954
72	0xbda7762e	-0.08176838
73	0x3c54aa89	0.012980112
74	0xbd33c2bc	-0.043886885
75	0xbc692bde	-0.01423165
76	0x3ce1a350	0.027543694
77	0x3c9e769f	0.019343672
78	0xbcd60b52	-0.026128445
79	0xbd0464e1	-0.032322768
80	0xbd055bb7	-0.03255817
81	0xbc19adbc	-0.0093798
82	0xbd3c238c	-0.045932338
83	0xbc598c72	-0.013278114
84	0xbd42f179	-0.047593568
85	0xbbf9a992	-0.0076190913
86	0xbb66d287	-0.00352207
87	0xbd89775f	-0.06712221
88	0x3c8b8865	0.017032811
89	0xbdb06db7	-0.086146764
90	0xbc009528	-0.007848062
91	0xbd0797e2	-0.03310383
92	0xbc17226c	-0.009224515
93	0x3c1fb39d	0.009747413
94	0xbd1d2d72	-0.03837342
95	0xbd916308	-0.07098967
96	0xbd6471d2	-0.05577261
97	0xbd0f2b7a	-0.03495357
98	0xbd5cd410	-0.053913176
99	0x3a5c7c22	0.0008410831
100	0xbdb48030	-0.08813512
101	0xbd15397d	-0.03643178
102	0xbd08e4e4	-0.033421412
103	0xbcf534d6	-0.02993242
104	0x3a9d6f3f	0.0012011303
105	0xbc53b937	-0.012922577
106	0xbc8142d8	-0.015778944
107	0xbc0dc3c7	-0.008652634
108	0xbd697dda	-0.057004787
109	0xbc9492d0	-0.018136412
110	0xbd3de4af	-0.046360668
111	0x3be95162	0.0071202973
112	0xbcf415d3	-0.029795563
113	0xbd97aea9	-0.07406361
114	0xbc7f89ce	-0.01559682
115	0xbd164466	-0.036686324
116	0xbd80f3c5	-0.06296495
117	0xbdb86400	-0.090034485
118	0xbc9ec360	-0.019380271
119	0x3bdd7699	0.0067585227
120	0xbda4c716	-0.08045785
121	0xbd4738b1	-0.04863805
122	0xbd2b7d3b	-0.041867476
123	0xbc5b60fe	-0.013389824
124	0xbd8e6ad4	-0.069539696
125	0xbcfea4bc	-0.03108441
126	0xbd1255e8	-0.035726458
127	0x3b810876	0.003937776

arith.constant1 f4 [64]
0	0xbd321c1c	-0.04348384
1	0xbd22a828	-0.039711148
2	0xbd34d5a8	-0.04414907
3	0xbd0ddb64	-0.034633055
4	0xbc88e390	-0.016710073
5	0xbd279f69	-0.04092351
6	0xbccde783	-0.025134807
7	0x3cf39b68	0.02973719
8	0xbc7aea99	-0.0153147215
9	0xbd6a74b7	-0.057240214
10	0xbd2ee664	-0.042700186
11	0xbd532901	-0.051552776
12	0xbc27047b	-0.010193939
13	0xbc4139aa	-0.011793533
14	0xbd1a3431	-0.03764743
15	0x3ad8c914	0.0016539418
16	0xbdc6f2d4	-0.097142845
17	0xbce122e9	-0.027482467
18	0xbc9e2797	-0.019305987
19	0xbd18672e	-0.037207775
20	0x3b64a159	0.003488621
21	0xbbdffed8	-0.0068357997
22	0xbd336be5	-0.043804068
23	0xbc6bb521	-0.014386446
24	0xbdc477cb	-0.09593161
25	0xbd1787c1	-0.0369947
26	0xbc898780	-0.016788244
27	0x3bac00b5	0.0052491077
28	0xbc3cf977	-0.011534086
29	0xbd3f723d	-0.046739805
30	0x3ca3322c	0.019921385
31	0xbcca0390	-0.024659902
32	0xbd424bee	-0.047435693
33	0x3bda2331	0.006657027
34	0xbd42d488	-0.047565967
35	0xbd64ecee	-0.055890016
36	0xbda7692d	-0.081743576
37	0xbd14f9bb	-0.036370974
38	0xbcf04a84	-0.029332407
39	0xbbe18830	-0.00688269
40	0xbcf42902	-0.02980471
41	0x3caf1145	0.02137054
42	0xbd177adc	-0.036982402
43	0xbdba302f	-0.090912215
44	0xbd1ef78f	-0.03881031
45	0xbd1111ca	-0.035417356
46	0xbc32b58a	-0.01090754
47	0xbd65e671	-0.05612797
48	0xbd26120b	-0.04054455
49	0xbd8cc127	-0.068727784
50	0xbd10e0db	-0.03537069
51	0xbd7dbed2	-0.06194956
52	0xbd90fad6	-0.07079093
53	0x3d31de8f	0.04342514
54	0xbde793f4	-0.11307517
55	0xbd3435b8	-0.043996543
56	0x3d8fac51	0.070152886
57	0xbced013b	-0.02893125
58	0xbcfb28d2	-0.030659113
59	0xbae2b01b	-0.0017294915
60	0xbca12579	-0.019671189
61	0xbcd41a54	-0.02589146
62	0xbd859123	-0.06521823
63	0xbcc87173	-0.02446816

arith.constant2 f4 [128, 3, 3, 64]
0	0x3cbba10a	0.022903938
1	0x3d02ea42	0.031961687
2	0x3d1a86c2	0.03772617
3	0x3d2f29c4	0.04276444
4	0xbc7b9c65	-0.015357112
5	0x3d5b3fbd	0.053527582
6	0x3d97dc4d	0.07415066
7	0x3c9d7a9b	0.019223502
8	0x3ce55401	0.027994158
9	0x3b9e23b9	0.004826036
10	0xbd49ec2b	-0.049297493
11	0xbd2622b1	-0.040560428
12	0x3d049812	0.032371588
13	0x3c524a9a	0.012835169
14	0x3d344042	0.044006594
15	0x3cc2eccc	0.023794554
16	0xbd853dff	-0.065059654
17	0x3d4614b5	0.04835959
18	0x3d49184a	0.04909543
19	0x3ce0777f	0.02740073
20	0xbd1586df	-0.036505576
21	0x3c4d8417	0.0125437
22	0x3ce9c351	0.028535517
23	0xbb8a93a9	-0.0042290282
24	0xbd2185c4	-0.03943421
25	0xbd63fd21	-0.055661324
26	0xbcaf8855	-0.021427313
27	0xbd60b2ca	-0.054858007
28	0x3c909fd2	0.017654333
29	0xbc54deab	-0.012992541
30	0x3d163e79	0.036680672
31	0xbc05f043	-0.008174959
32	0x3ce52bfa	0.027975071
33	0xbd4a43e0	-0.049381137
34	0x3d0722d2	0.03299219
35	0xbcb8ac92	-0.022543225
36	0x3cc23e18	0.02371125
37	0xbb884a77	-0.0041592675
38	0x3d0b106a	0.0339512
39	0x3d7cc9fc	0.061716065
40	0xbc0d90b3	-0.008640456
41	0xbc913c12	-0.01772884
42	0x3c642f0b	0.013927232
43	0xbd6455a7	-0.055745747
44	0x3bf25319	0.00739516
45	0xbd0511f9	-0.032487843
46	0x3c97dd37	0.0185381
47	0x3bd67bf3	0.0065455376
48	0xbd1ca162	-0.038239844
49	0xbd032eb2	-0.032026954
50	0xbd12a477	-0.035801377
51	0x3d37d724	0.04488291
52	0xbbc70737	-0.006073858
53	0x3ca7d85f	0.020488916
54	0xbbb79a06	-0.005603078
55	0x3ced2c71	0.028951855
56	0x3ba5d2dc	0.005060537
57	0x3cf73c47	0.03018011
58	0xbd1ce567	-0.038304713
59	0x3b40e595	0.0029433717
60	0x3d107b5f	0.035273906
61	0x3c40b4cd	0.011761856
62	0x3c43ece4	0.011958335
63	0xbd049d94	-0.03237684
64	0x3d11429e	0.03546392
65	0xbc8e2cd8	-0.017355368
66	0x3d5a89f3	0.053354215
67	0x3d426653	0.047460865
68	0xbca0bfe3	-0.019622749
69	0x3d57cbfb	0.052684765
70	0x3c9b0036	0.018920999
71	0x3d187043	0.037216436
72	0xbcb65185	-0.022255668
73	0xbce283b1	-0.027650686
74	0x3c995885	0.018718967
75	0x3cf31f95	0.029678145
76	0xbd638f4f	-0.05555659
77	0xbcdb8ffd	-0.026802057
78	0x3c59911b	0.013279225
79	0xbd7134d4	-0.05888827
80	0xbc8945bc	-0.016756885
81	0x3d67c8f8	0.056588143
82	0x3d5abaa0	0.053400636
83	0x3d94e537	0.07270282
84	0xbb85e90c	-0.0040866192
85	0x3b2f4980	0.002674669
86	0xbd2c8550	-0.042119324
87	0xbd13d227	-0.03608909
88	0xbd29b2b8	-0.041430205
89	0xbd3fa690	-0.046789706
90	0x3d72da43	0.05929018
91	0xbcc7a7a6	-0.024371933
92	0xbc5647bb	-0.013078625
93	0x3d05250f	0.032506045
94	0x3d04207f	0.032257553
95	0x3da435b0	0.080180526
96	0x3c8402b0	0.016114563
97	0x3c6d203b	0.014473016
98	0x3d83dded	0.06438813
99	0x3d92de9a	0.07171364
100	0xbc82dea2	-0.0159753
101	0x3d0a4b46	0.033763193
102	0xbd22271b	-0.039588075
103	0xbcb390e0	-0.021919668
104	0x3b8ae7ee	0.004239074
105	0x3c098576	0.008393636
106	0xbcb85d9d	-0.022505576
107	0xbdb69674	-0.089154154
108	0xbd31d343	-0.043414366
109	0x3b64f1bb	0.0034934122
110	0x3c9d17f9	0.01917647
111	0xbd0b8b42	-0.034068353
112	0xbc632fec	-0.013866406
113	0xbc6b206f	-0.0143509945
114	0x3c818078	0.015808329
115	0x3ca595dc	0.02021306
116	0xbd3210cd	-0.043473054
117	0xbca0c0a0	-0.0196231
118	0x3de6dcf0	0.11272609
119	0x3d61bf88	0.0551143
120	0xbd64b2fe	-0.055834763
121	0xbd1b6c7c	-0.037945256
122	0x3c653a9d	0.013991025
123	0x3cc8b281	0.02449918
124	0x3d6a20e5	0.057160277
125	0xbd7e066c	-0.062017843
126	0x3c0d76e1	0.0086343
127	0xbd0ada55	-0.033899624
128	0x3d5fdaa6	0.05465188
129	0x3c9823f7	0.018571837
130	0xbc39f5d9	-0.011350119
131	0x3d03c172	0.032166906
132	0x3c3ed98e	0.011648549
133	0x3cd60eb4	0.026130058
134	0x3d8eb948	0.06968933
135	0x3ca1135e	0.019662555
136	0xbaf3d765	-0.0018603621
137	0x3c1dbbe7	0.009627319
138	0xbc25adfd	-0.010112283
139	0x3da8ebba	0.08248086
140	0x3d3bae0c	0.04582028
141	0xbcb7faa4	-0.022458382
142	0xbacc2b43	-0.0015576858
143	0xbd6ccb67	-0.057811167
144	0x3cdfa287	0.027299179
145	0xbd02ecde	-0.031964175
146	0xbcb8f717	-0.02257876
147	0xbc76d285	-0.01506484
148	0xbd865b1e	-0.06560348
149	0xbd07bd9f	-0.03313982
150	0x3c8adc98	0.01695089
151	0xbcbc3032	-0.0229722
152	0xbcf332a7	-0.029687239
153	0xbc83e973	-0.016102528
154	0xbd15ba31	-0.03655452
155	0x3c0fda95	0.008780141
156	0x3d4f6958	0.050637573
157	0x3c4108a2	0.011781843
158	0xbd5e0cc4	-0.054211393
159	0x3c92838d	0.017884994
160	0x3d40a251	0.047029797
161	0xbc9b8c36	-0.018987756
162	0x3c988441	0.018617751
163	0x3cf57332	0.029962156
164	0x3d292684	0.041296497
165	0x3c2de425	0.010613476
166	0xbd3caeda	-0.04606519
167	0x3bce3ec3	0.006294103
168	0x3d070e2f	0.03297251
169	0xbd37e8c0	-0.044899702
170	0xbd7a226c	-0.061067984
171	0xbc18ef9f	-0.009334474
172	0xbd20641e	-0.03915798
173	0x3d0c85bf	0.034307238
174	0x3ccdd366	0.025125217
175	0xbd1827b3	-0.037147235
176	0x3d3b0068	0.045654684
177	0x39f8436f	0.00047352488
178	0x3d885f68	0.06658822
179	0x3d2a88f3	0.04163451
180	0x3c27b90a	0.010236988
181	0x3d0041b4	0.03131266
182	0x3dca6728	0.09882957
183	0xbc73c3c0	-0.014878213
184	0xbc2c4830	-0.010515258
185	0xbd7d2b3b	-0.061808806
186	0x3ccefef3	0.025268054
187	0x3d3a7a58	0.045526832
188	0xbc82bc7b	-0.015959015
189	0xbd2a43ee	-0.04156869
190	0xbccce466	-0.025011253
191	0x3d66e53f	0.05637097
192	0xbb123527	-0.0022309513
193	0xbcb798e7	-0.022411777
194	0xbd0bb034	-0.034103587
195	0xbc95561f	-0.018229542
196	0x3d2fe95c	0.04294716
197	0x3d483a6b	0.048883837
198	0x3cdc0aa1	0.026860537
199	0xbccb958a	-0.02485158
200	0x3b7ec0ce	0.0038872245
201	0x3d50266a	0.050817885
202	0x3cf057b6	0.029338699
203	0xbc52ea7d	-0.012873289
204	0xbd49947d	-0.049213875
205	0x3d1dd919	0.03853712
206	0x3d3f0a7f	0.04664087
207	0xbd828858	-0.06373662
208	0xbd727117	-0.059189882
209	0x3d378f30	0.04481429
210	0xbbf070b1	-0.0073376526
211	0x3c815320	0.015786707
212	0x3d23f628	0.040029675
213	0x3d013ad3	0.03155024
214	0xbd58360f	-0.05278593
215	0xb9d2b316	-0.0004018775
216	0x3c919dee	0.017775502
217	0x3b8e1cc5	0.0043369257
218	0xbca6086a	-0.020267684
219	0xbd9d13ad	-0.076697685
220	0x3d4c1f9c	0.049834833
221	0x3a4bb92c	0.0007771428
222	0xbd0212bc	-0.031756148
223	0xbcd39a03	-0.025830274
224	0x3d231387	0.039813545
225	0xbcfe74c0	-0.03106153
226	0xbc0c77f1	-0.008573518
227	0x3cc370cd	0.023857499
228	0x3d8a135d	0.067419745
229	0xbd10ad7f	-0.03532171
230	0xbb3bdea2	-0.0028666635
231	0x3cd865bb	0.026415696
232	0xbd034e7b	-0.032057267
233	0x3c9e3c08	0.019315735
234	0x3c7d7bd4	0.015471417
235	0xbda11bd6	-0.078666374
236	0x3cc07776	0.023494463
237	0xbd7363fd	-0.059421528
238	0xbd4d9caf	-0.050198253
239	0x3d2d368b	0.042288344
240	0xbd7d0e99	-0.0617815
241	0x3c7f32ce	0.015576078
242	0x3d3cf113	0.046128344
243	0x3d8c4c1f	0.068504564
244	0xbd54d80e	-0.05196386
245	0xbd30b239	-0.043138716
246	0x3d9e0633	0.07716026
247	0xbd0ec41f	-0.034855004
248	0x3ccae655	0.024768034
249	0xbd3a2e5a	-0.04545436
250	0xbc8ff8e9	-0.017574744
251	0x3d16e95e	0.03684365
252	0xbd088eb8	-0.033339232
253	0x3ab0f108	0.0013499567
254	0xbd1e3b2b	-0.038630646
255	0xbb01794b	-0.0019756134

arith.constant3 f4 [64, 3, 3, 32]
0	0xbd127a28	-0.03576103
1	0x3d63cd85	0.05561592
2	0x3d26ae07	0.04069331
3	0x3de95839	0.1139378
4	0xbcab5bdd	-0.020917827
5	0x3c722a00	0.014780521
6	0xbd7e6358	-0.06210646
7	0xbb264d38	-0.0025375616
8	0xbcbb4a2c	-0.022862516
9	0x3d7dfe8e	0.06201034
10	0xbc38c3aa	-0.011277119
11	0xbd0544bc	-0.032536253
12	0xbdf6b2a3	-0.12045791
13	0x3d70634e	0.058688454
14	0xbd41b9aa	-0.047296204
15	0x3d042d13	0.03226955
16	0x3ccfaf38	0.025352105
17	0x3cadaf6d	0.021201814
18	0xbd42bb8c	-0.04754214
19	0xbc45206a	-0.012031654
20	0xbcbd80c1	-0.023132684
21	0x3dc9b9c5	0.09849886
22	0xbb6f4822	-0.00365115
23	0xbd2d449c	-0.04230176
24	0xbc9a4d0e	-0.01883557
25	0x3cec6455	0.028856436
26	0x3d22fd48	0.03979233
27	0x3c940cb6	0.018072467
28	0xbceebb1b	-0.029141953
29	0x3d26d54f	0.04073077
30	0x394393b6	0.00018651676
31	0xbdad791e	-0.08470367
32	0x3d24e349	0.04025582
33	0xbd7646ba	-0.060126044
34	0x3d101689	0.03517774
35	0x3e022941	0.1271105
36	0xbda2a24c	-0.07941112
37	0x3d332673	0.04373784
38	0x3d439860	0.047752738
39	0x3d60800e	0.054809622
40	0x3c719cc5	0.014746849
41	0x3cff8f54	0.031196274
42	0xbcd097f8	-0.02546309
43	0xbdaf2e3c	-0.085537404
44	0xbbff50ff	-0.007791638
45	0x3c51eab5	0.012812306
46	0x3ca1c982	0.019749407
47	0x3d772478	0.060337514
48	0x3cd0d440	0.025491834
49	0x3cc3d712	0.023906264
50	0xbc68c43d	-0.014206943
51	0x3dfc641b	0.12323781
52	0x3c47a818	0.012186073
53	0x3db73951	0.08946479
54	0xbd646106	-0.05575659
55	0xbb8a0d86	-0.004213038
56	0x3d364db6	0.044507705
57	0x3d98860d	0.07447443
58	0x3d5207b3	0.051276874
59	0x3c66c3af	0.014084741
60	0x3dd1207d	0.10211275
61	0x3d78a2f9	0.060702298
62	0x3d7ceead	0.061751056
63	0xbc7f6a0f	-0.015589251
64	0xbdaad7fe	-0.083419785
65	0x3d9ea219	0.077457614
66	0xbc2317d6	-0.009954413
67	0x3de2b1e3	0.110690854
68	0x3d83a459	0.06427831
69	0x3c1ca0c4	0.009559814
70	0xbd1f9352	-0.038958855
71	0x3d941073	0.072297
72	0x3c37172a	0.011174956
73	0xbdce5bcf	-0.10076105
74	0xbd36d518	-0.044636816
75	0xbd49df4d	-0.04928522
76	0x3d843d1f	0.064569704
77	0x3d8dcfab	0.06924375
78	0xbc0fe1ba	-0.008781845
79	0x3c001240	0.007816851
80	0x3d432ff5	0.047653157
81	0x3ca7139f	0.020395098
82	0xbcec17f7	-0.028820021
83	0x3d8ec425	0.06971005
84	0xbc8dea5a	-0.017323662
85	0xbd04f15e	-0.03245675
86	0xbdb3b962	-0.08775593
87	0xbd4fe063	-0.0507511
88	0x3e1df2e8	0.15424693
89	0xbd3f46ad	-0.04669826
90	0x3d152e48	0.03642109
91	0xbcaeb72b	-0.021327576
92	0xbd83669a	-0.06416054
93	0x3b4222b8	0.0029622745
94	0xbc3d59fd	-0.011557099
95	0xbd97084a	-0.07374628
96	0x3d3a8e82	0.045546062
97	0x3d69d482	0.05708743
98	0x3d4f0e86	0.05055096
99	0xbd6915ce	-0.05690556
100	0x3da127ea	0.07868941
101	0xbcde7211	-0.027154
102	0xbd3c727e	-0.046007626
103	0x3d4fe51a	0.050755598
104	0xbd013312	-0.031542845
105	0xbd5acf0a	-0.053420104
106	0x3d11f297	0.035631742
107	0x3c27edab	0.010249536
108	0x3d28f177	0.041245904
109	0x3d8cfa3f	0.06883668
110	0x3d8eea6e	0.06978308
111	0x3d6c3a10	0.05767256
112	0x3d83db51	0.06438316
113	0x3b361361	0.0027782547
114	0x3d8df897	0.069321804
115	0x3d0c8f66	0.034316443
116	0xbd67335f	-0.056445476
117	0x3d52b583	0.051442634
118	0xbd1232cd	-0.03569298
119	0xbcb908a9	-0.022587137
120	0xbc7ab094	-0.015300889
121	0x3ca22c7f	0.019796608
122	0x3d7f51de	0.062333934
123	0xb96751da	-0.00022060369
124	0x3db3ffa3	0.08788993
125	0x3d1d4e0c	0.03840451
126	0xbd79006c	-0.060791418
127	0xbd8d4c51	-0.06899322
128	0x3d44c4ad	0.048039127
129	0xbd71b584	-0.059010997
130	0x3d0a16be	0.033713095
131	0xbc9d7b50	-0.019223839
132	0x3d41a438	0.04727575
133	0xba03609b	-0.0005011649
134	0xbdb826aa	-0.089917496
135	0x3d1cda36	0.03829404
136	0xbd993125	-0.07480077
137	0x3d8cd563	0.06876638
138	0xbd0b9a21	-0.034082536
139	0xbd3e204a	-0.046417512
140	0xbdda9e96	-0.10674779
141	0xbd8e0099	-0.06933708
142	0x3d99efc3	0.07516434
143	0xbbb7de85	-0.005611243
144	0xbd714274	-0.058901265
145	0xbd9a8114	-0.07544151
146	0xbc33a401	-0.010964395
147	0x3d3d46f3	0.04621024
148	0xbc62a590	-0.0138334185
149	0x3c9ce790	0.019153386
150	0xbd7ca668	-0.061682135
151	0x3d86859e	0.06568454
152	0x3c8b0f68	0.01697512
153	0xbd8c6e0c	-0.06856927
154	0xbd127f17	-0.035765734
155	0x3c35cd69	0.011096337
156	0xbab3526b	-0.0013681179
157	0xbb50c8f5	-0.003185806
158	0x3c8c9f4d	0.017165804
159	0xbd073960	-0.0330137
160	0xbd92e12e	-0.07171856
161	0xbc7b2720	-0.015329152
162	0xbc0e9c22	-0.008704217
163	0x3bc82f75	0.006109173
164	0xbd07154d	-0.0329793
165	0x3dc1239a	0.094306186
166	0xbd28872f	-0.041144546
167	0xbbf9fb09	-0.0076288027
168	0x3d7c7845	0.061638135
169	0xbd03a872	-0.032143064
170	0xbd17618d	-0.036958266
171	0x3cf4843e	0.029848214
172	0xbd483a17	-0.048883524
173	0x3d485be2	0.04891575
174	0x3d5733e3	0.052539717
175	0xbd0684a3	-0.032841336
176	0xbd343196	-0.0439926
177	0xbd83a738	-0.06428379
178	0xbd42d8ff	-0.047570225
179	0xbc838dda	-0.016058851
180	0x3cdc4b22	0.026891295
181	0x3ce744f7	0.028231127
182	0xbd04723d	-0.03233551
183	0xbd8a869a	-0.067639545
184	0xbd7dd347	-0.061969068
185	0xbd9dac8a	-0.07698925
186	0x3c87caf4	0.016576268
187	0xbd417a77	-0.047235932
188	0xbcb266fc	-0.021777622
189	0xbdb40b9b	-0.08791276
190	0xbc1198f0	-0.008886561
191	0xbc9c5574	-0.019083716
192	0xbdb453f7	-0.088050775
193	0xbda2527c	-0.07925889
194	0xbcfe460e	-0.031039264
195	0x3d8e3ea0	0.069455385
196	0x3d89ad89	0.06722552
197	0x3bbf1385	0.0058311843
198	0xbd6d76af	-0.057974514
199	0xbd58006b	-0.052734774
200	0x3b48b29a	0.0030624033
201	0x3cd66e39	0.026175605
202	0x3c512dd5	0.012767275
203	0x3c9be00d	0.019027734
204	0x3d773a49	0.06035832
205	0x3c974a00	0.018467903
206	0x3d30db8d	0.04317813
207	0xbd1b7c79	-0.037960503
208	0x3cd8ba42	0.026456002
209	0x3a18c296	0.00058273354
210	0x3ca7ba06	0.020474445
211	0x3d59e8fc	0.053200707
212	0x3d602b5a	0.054728843
213	0x3d29275b	0.041297298
214	0xbd5b12ee	-0.05348485
215	0x3d9554f2	0.07291593
216	0xbd883a58	-0.06651753
217	0xbdc30e82	-0.095242515
218	0x3d5b4921	0.053536538
219	0xbc3cdd74	-0.011527408
220	0xbcbe9c56	-0.023267906
221	0xbdcc3883	-0.09971716
222	0xbd3cfb75	-0.046138246
223	0xbcae3aad	-0.021268213
224	0xbc04f1ed	-0.00811432
225	0xbc0daf80	-0.0086477995
226	0x3d81bcf0	0.06334865
227	0xbce8f618	-0.02843766
228	0x3caa33b5	0.020776609
229	0x3d2829a3	0.041055333
230	0x3d9c0b8e	0.076193914
231	0xbd72d229	-0.059282456
232	0xbda66c50	-0.08126128
233	0xbdb6603f	-0.08905076
234	0x3bcf9213	0.006334552
235	0xbc86433b	-0.01638948
236	0x3d88fdc0	0.06689024
237	0xbc8c6c07	-0.017141355
238	0xbcab54db	-0.020914486
239	0x3cc614aa	0.024179775
240	0x3b0d0fa2	0.002152421
241	0xb9cfc999	-0.0003963232
242	0xbd75dfaf	-0.060027774
243	0xbd37e7ca	-0.044898786
244	0xbd3fadae	-0.046796493
245	0xbbc410af	-0.005983434
246	0x3d3fd5e4	0.04683484
247	0x3d9d2016	0.076721355
248	0xbd0d8830	-0.034553707
249	0x3d1be09a	0.038055994
250	0x3d7c894f	0.061654385
251	0xbd274ac6	-0.040842794
252	0xbd644b1e	-0.0557357
253	0xbdac048c	-0.08399305
254	0xbd1575e2	-0.036489375
255	0x3c21c65c	0.009873953

arith.constant4 f4 [3, 128]
0	0xbe0cfeac	-0.13769025
1	0x3e1b453f	0.15163134
2	0x3e39103f	0.18072604
3	0xbd6ac0df	-0.057312842
4	0xbdc69e50	-0.096981645
5	0xbcec4ae1	-0.028844299
6	0xbe5504f3	-0.20802669
7	0x3e0433c6	0.12910375
8	0xbdc9fdfd	-0.098628975
9	0xbdce3bdc	-0.10070011
10	0xbe7e4180	-0.24829674
11	0xbe6eeff9	-0.2333373
12	0xbba438af	-0.00501164
13	0x3d8a91db	0.06766101
14	0xbe76ee44	-0.24114329
15	0x3e3bd9a3	0.1834474
16	0x3e7e4102	0.24829486
17	0xbe1a7228	-0.1508261
18	0xbcf7da42	-0.03025544
19	0xbe44b8c1	-0.19211103
20	0x3d9906c0	0.074719906
21	0xbcaf0491	-0.021364482
22	0x3e164a11	0.14676692
23	0xbe2a0a51	-0.16605498
24	0xbe666d06	-0.22502527
25	0xbe491e53	-0.19640474
26	0xbe03c0a8	-0.12866461
27	0x3e28f3e4	0.16499287
28	0xbc58f864	-0.013242815
29	0xbe208b75	-0.15678199
30	0xbe570ef8	-0.21001804
31	0xbe4af60a	-0.19820419
32	0xbdb9b214	-0.09067169
33	0xbe1f1d87	-0.15538608
34	0xbce87675	-0.028376797
35	0x3dbfa933	0.09358444
36	0x3e2f41c4	0.17114931
37	0x3e6abb0c	0.22922915
38	0xbda36aba	-0.07979341
39	0x3dc2ca15	0.095112
40	0xbca2cbb1	-0.019872518
41	0x3d9bc29f	0.076054804
42	0xbe1dfbfe	-0.15428159
43	0x3bb1aca6	0.0054221926
44	0x3dda39ef	0.10655581
45	0x3dbb063e	0.0913205
46	0x3e5449f7	0.2073134
47	0xbe4bd61a	-0.19905892
48	0x3e166ec1	0.14690687
49	0x3e7aebd0	0.24504018
50	0xbe81f594	-0.25382674
51	0x3da1a6de	0.078931555
52	0x3e6746a2	0.22585538
53	0xbde0e1e7	-0.109805875
54	0x3e541414	0.20710784
55	0xbdf8a5e6	-0.121410176
56	0xbe3bf5fd	-0.18355556
57	0x3e1e910f	0.15485023
58	0xbe657357	-0.2240728
59	0x3e356fde	0.17718455
60	0xbe6c0a60	-0.23050833
61	0xbdb3263c	-0.08747527
62	0xbdda48be	-0.10658406
63	0x3e54ccc4	0.20781237
64	0xbc414015	-0.0117950635
65	0x3dd81298	0.105504215
66	0xbe34ce10	-0.17656732
67	0x3e50a863	0.20376734
68	0x3e411e95	0.18859322
69	0xbe46c7d6	-0.19412169
70	0xbc8e9205	-0.017403612
71	0x3cdca1d0	0.026932627
72	0xbe53d029	-0.20684876
73	0x3e21dd4d	0.15807076
74	0xbe09be31	-0.13451459
75	0x3d8cba00	0.06871414
76	0x3e37623c	0.17908567
77	0xbdf29559	-0.11844892
78	0x3d945d34	0.072443396
79	0x3e7befdd	0.2460322
80	0x3e206c76	0.15666375
81	0xbc982946	-0.018574368
82	0x3e082440	0.13295078
83	0x3e1631ef	0.14667486
84	0xbde8bf73	-0.11364641
85	0x3e429d61	0.19005348
86	0x3d096b00	0.03354931
87	0x3d37d367	0.044879343
88	0xbe7f40a0	-0.24926996
89	0x3dae7cb2	0.085198775
90	0x3e7f16ef	0.24911092
91	0xbd9ac228	-0.075565636
92	0x3e2c9191	0.16852404
93	0xbde54b5b	-0.111960135
94	0x3c809641	0.015696647
95	0xbe3694d4	-0.17830211
96	0x3e5e252f	0.21693872
97	0x3dc882ac	0.09790549
98	0x3d20caef	0.039256033
99	0x3e293027	0.16522275
100	0xbe38ada1	-0.18034984
101	0xbda074a6	-0.07834749
102	0xbe2640ba	-0.16235629
103	0x3daa2201	0.08307267
104	0x3e1d8ac6	0.15384969
105	0x3e06bc2c	0.1315772
106	0x3da5c354	0.080938965
107	0xbe526e38	-0.20549858
108	0x3d7da994	0.0619293
109	0x3daefc5b	0.08544227
110	0x3d3d64a7	0.046238568
111	0x3e555834	0.20834428
112	0x3b52e06f	0.003217723
113	0xbe4dd312	-0.20100048
114	0x3d9e78af	0.07737862
115	0xbe2096d1	-0.15682532
116	0x3e656799	0.224028
117	0x3e5e6243	0.21717171
118	0xbe03c771	-0.1286905
119	0xbe8d224c	-0.2756523
120	0x3e83a6d6	0.25713223
121	0xbe0f2edf	-0.13982724
122	0xbddc7e77	-0.10766309
123	0xbe1dd770	-0.15414214
124	0x3ce30e50	0.027716786
125	0xbde996a6	-0.11405687
126	0xbe7810ba	-0.2422513
127	0x3e4057b5	0.18783458
128	0x3dfad6c2	0.12247993
129	0xbe512757	-0.20425163
130	0xbd75cb2a	-0.060008205
131	0xbe638cb1	-0.22221638
132	0xbe46a92e	-0.19400474
133	0xbe67fb2e	-0.22654411
134	0xbd9e6763	-0.07734563
135	0x3e4fe45a	0.20301953
136	0x3dd9e0ab	0.10638555
137	0xbda2ba05	-0.07945637
138	0xbdc0892b	-0.09401163
139	0x3e17bbbe	0.14817712
140	0x3e16531d	0.14680143
141	0xbe06d87b	-0.13168518
142	0xbe51bdcf	-0.20482562
143	0xbe268af8	-0.1626395
144	0xbe62dc54	-0.22154361
145	0x3dcab00c	0.098968595
146	0xbe22d8b8	-0.15902984
147	0xbe80e444	-0.25174153
148	0xbe530d27	-0.20610486
149	0xbc9e8bad	-0.019353712
150	0xbdaa78d7	-0.083238296
151	0x3cad67ef	0.021167723
152	0x3e283468	0.16426241
153	0xbdf03d19	-0.117304035
154	0x3de84ab5	0.11342374
155	0xbe51f454	-0.2050336
156	0xbe57852e	-0.21046898
157	0x3e0bdd52	0.13658646
158	0x3dd72877	0.10505765
159	0x3d8d6a03	0.06904986
160	0xbcb5dd17	-0.02220015
161	0x3e43622c	0.19080418
162	0xbe3a7c9a	-0.18211594
163	0xbe42c178	-0.19019115
164	0xbe961081	-0.29309466
165	0x3d0b88f9	0.034066174
166	0xbe26cdf3	-0.16289501
167	0xbcc0a0d9	-0.023514198
168	0x3e4d63b0	0.20057559
169	0xbe09b3b3	-0.13447456
170	0xbe3968e9	-0.18106426
171	0x3dfb80be	0.12280415
172	0x3d17fb8b	0.037105124
173	0xbe785160	-0.24249792
174	0xbd49b0df	-0.049240943
175	0xbe74c4db	-0.2390322
176	0x3d728b82	0.059215076
177	0xbe19c350	-0.15015912
178	0x3e504720	0.20339632
179	0xbe1c0a03	-0.15238194
180	0x3dbfa427	0.093574814
181	0x3e63dd65	0.22252424
182	0x3b0efa40	0.002181664
183	0x3dc76f10	0.0973798
184	0x3d89a4e2	0.06720902
185	0xbe02069d	-0.12697835
186	0xbe218849	-0.15774645
187	0xbdf0edff	-0.11764144
188	0xbcf29e09	-0.029616373
189	0x3c736e06	0.014857775
190	0xbd6910d7	-0.056900825
191	0xbe1891f9	-0.14899434
192	0x3dd1d348	0.10245377
193	0x3e691690	0.22762513
194	0x3e7571f1	0.23969246
195	0xbd36cff6	-0.04463192
196	0x3dc9a17f	0.09845256
197	0x3e25e2fe	0.16199872
198	0x3e5147fe	0.20437619
199	0x3d10e6c2	0.035376318
200	0x3e2f3730	0.17110896
201	0xbd0afad6	-0.033930622
202	0x3e29ea9c	0.16593403
203	0x3d87538b	0.066077314
204	0xbe082a00	-0.13297272
205	0x3d03e1c8	0.032197744
206	0xbce1435d	-0.027497942
207	0xbd34421b	-0.044008356
208	0x3dcab33f	0.0989747
209	0x3e6ce4b7	0.23134123
210	0x3d8784d7	0.06617134
211	0xbe3492ac	-0.17634076
212	0xbe0d10a3	-0.13775878
213	0x3df66b8b	0.12032231
214	0x3e025a5f	0.12729786
215	0xbdab0124	-0.08349827
216	0xbd2aa05a	-0.04165683
217	0xbe2054cf	-0.15657352
218	0xbe50bbf4	-0.20384198
219	0x3db1d384	0.086829215
220	0x3e208a72	0.15677813
221	0x3d05658b	0.032567542
222	0x3e016e13	0.12639646
223	0x3daf51c0	0.085605145
224	0xbd2189eb	-0.03943817
225	0xbdd87751	-0.10569633
226	0xbe10baa2	-0.14133695
227	0x3dfc9930	0.12333906
228	0x3e5388e0	0.20657682
229	0xbe1d009f	-0.15332268
230	0x3e5303f3	0.20606975
231	0x3d347db8	0.044065207
232	0xbe3fb8ab	-0.18722789
233	0xbe24e6b2	-0.16103628
234	0x3e4a3bd1	0.1974938
235	0xbc644a5b	-0.013933743
236	0xbc7c72c4	-0.015408222
237	0x3e16510a	0.14679351
238	0xbe05daa6	-0.13071689
239	0x3ddb9dae	0.107234344
240	0xbe58926c	-0.21149606
241	0x3de72dbc	0.1128802
242	0x3caacaf6	0.020848732
243	0xbe4b19f2	-0.19834116
244	0x3dc34297	0.095341854
245	0xbe2f6d7e	-0.17131612
246	0x3dbe2d80	0.09286022
247	0x3e020519	0.12697257
248	0xbe082bc1	-0.13297941
249	0x3dd3eb09	0.10347564
250	0xbd79d705	-0.060996074
251	0x3e5b03df	0.21388195
252	0xbe8059ab	-0.2506841
253	0x3d38c60f	0.04511076
254	0x3dbf2923	0.09334018
255	0xbda812b4	-0.08206692

arith.constant5 f4 [128, 128]
0	0x3e08b24e	0.13349268
1	0xba147b3c	-0.00056641153
2	0x3d926040	0.071472645
3	0xbde43f4b	-0.11144885
4	0x3c4a95dd	0.012364832
5	0xbe00e7dd	-0.12588449
6	0xbe1cc9f8	-0.1531142
7	0x3a4b8b04	0.00077645504
8	0xbe336729	-0.17519821
9	0x3d6e2c3a	0.058147646
10	0x3d89355b	0.0669963
11	0x3ccf6f9b	0.025321772
12	0x3d9a59bd	0.075366475
13	0xbcd1ee58	-0.025626346
14	0xbe003730	-0.12521052
15	0x3df392ed	0.11893258
16	0xbd428180	-0.047486782
17	0x3dc04a23	0.093891405
18	0x3d752467	0.05984917
19	0xbd9d81c3	-0.07690766
20	0xbd0108e8	-0.031502634
21	0x3db6e71b	0.089307986
22	0x3ddf70c7	0.109101824
23	0xbdb66441	-0.08905841
24	0x3c934fd9	0.01798241
25	0xbc6ee1f7	-0.014580241
26	0x3ddf9e70	0.109188914
27	0xbd9f2e17	-0.07772463
28	0xbe1a7af3	-0.15085964
29	0xbd92fdec	-0.07177338
30	0xbdd8bd5c	-0.105829924
31	0xbdb8f52d	-0.090311386
32	0x3dc9c77c	0.09852502
33	0x3d70660d	0.058691073
34	0x3c74f336	0.014950564
35	0xbe1959e1	-0.14975692
36	0x3d0c4413	0.034244608
37	0x3d9dfac9	0.07713849
38	0x3e1415ee	0.1446149
39	0xbd8176e5	-0.063215055
40	0xbcd27ba0	-0.025693715
41	0x3caa810d	0.02081349
42	0xbd63636c	-0.055514738
43	0xbe1f4fbf	-0.15557764
44	0xbdf509a4	-0.119647294
45	0x3d81d95c	0.06340286
46	0xbcfc6494	-0.030809678
47	0xbd9a7b2e	-0.07543026
48	0xbc844ae9	-0.016149001
49	0xbdcbafa2	-0.09945609
50	0x3dea2375	0.11432544
51	0x3bff6edc	0.007795198
52	0xbd9c8822	-0.07643153
53	0xbcea4d3a	-0.028601278
54	0xbd7c20ec	-0.061554834
55	0x3d50d191	0.050981108
56	0x3dbfb8b4	0.09361401
57	0xbe127612	-0.14302853
58	0x3e247be6	0.16062889
59	0x3d0cefa7	0.034408238
60	0x3e27e399	0.16395415
61	0x3d178df4	0.03700061
62	0xbe2d420f	-0.1691973
63	0xbc5b4aa1	-0.013384492
64	0x3d327c86	0.043575786
65	0xbe2b6d41	-0.16740896
66	0xbd60a9bf	-0.054849382
67	0x3c99a0c9	0.018753426
68	0x3d9fd1ea	0.0780371
69	0xbd6be443	-0.057590734
70	0x3cc572f5	0.024102667
71	0x3db0c465	0.08631209
72	0xbe136b79	-0.14396466
73	0xbe0f3554	-0.13985187
74	0xbdb4258f	-0.08796226
75	0xbc798329	-0.015229025
76	0xbdcf3bb3	-0.101188086
77	0x3ccac468	0.024751857
78	0xbd1ba450	-0.037998497
79	0x3e2a38e3	0.16623263
80	0x3c89ac55	0.016805807
81	0xbe00f5ac	-0.12593716
82	0xbe0a94c7	-0.13533317
83	0xbdf0a376	-0.11749928
84	0x3dbe4dae	0.0929216
85	0x3df94e2d	0.12173114
86	0xbd9236b1	-0.07139338
87	0xbb2c387d	-0.0026278787
88	0x3de76119	0.11297817
89	0x3e25f7c3	0.16207795
90	0x3dc9fb85	0.09862427
91	0x3cafda2f	0.021466343
92	0xbdadff9c	-0.08496019
93	0xbdff2ae6	-0.12459354
94	0xbdd98902	-0.10621835
95	0x3c2aaf0b	0.01041771
96	0x3df95008	0.12173468
97	0x3df7c76a	0.12098582
98	0xbd87c473	-0.066292666
99	0xbdaa10d3	-0.0830399
100	0x3ccb35d6	0.024805944
101	0x3d0cfd42	0.034421213
102	0x3afc2c6a	0.0019239311
103	0xbdea37be	-0.11436413
104	0xbd278449	-0.04089764
105	0xbdd73c09	-0.10509498
106	0xbc65b688	-0.01402057
107	0x3db44cb7	0.08803695
108	0x3b35b28c	0.002772483
109	0x3d42436e	0.047427587
110	0x3d973931	0.07383955
111	0x3d90d83d	0.07072494
112	0x3d94f689	0.07273585
113	0x3dfec5cf	0.12440073
114	0x3db9b689	0.09068019
115	0xbc291d3f	-0.010321914
116	0xbe075795	-0.13217004
117	0xbe380e28	-0.1797415
118	0x3cc58708	0.02411224
119	0xbe1480c6	-0.14502248
120	0x3cef2e20	0.029196799
121	0xbe2af94b	-0.1669666
122	0xbb7601f1	-0.0037537778
123	0xbd432eb4	-0.04765196
124	0x3e1cfd46	0.15330991
125	0x3d133569	0.035939608
126	0xbd12a106	-0.035798095
127	0x3d9f7601	0.07786179
128	0xbdee8430	-0.116463065
129	0xbdfae04e	-0.12249814
130	0xbdafa366	-0.08576088
131	0xbd961fc6	-0.07330279
132	0xbdc489b6	-0.09596579
133	0xbe19aaa7	-0.15006505
134	0xbcc95797	-0.024577899
135	0xbdd2ad38	-0.10286945
136	0x3d0a57b9	0.033775065
137	0xbdf604ae	-0.12012611
138	0xbdc90e5b	-0.09817191
139	0x3e15590a	0.14584747
140	0xbdf0f7b8	-0.117659986
141	0x3e129a88	0.14316761
142	0x3c267342	0.010159316
143	0x3da8101b	0.08206197
144	0x3d0e759f	0.03478014
145	0x3a6b031f	0.00089650037
146	0x3d99c3d6	0.07508056
147	0x3e2ba553	0.16762285
148	0x3dd7fe0e	0.10546504
149	0x3d01ca42	0.03168703
150	0x3cab9044	0.020942815
151	0xbe0301e5	-0.12793691
152	0xbdf252a8	-0.11832172
153	0x3e28318d	0.16425152
154	0x3ba23196	0.0049497588
155	0x3c5635f5	0.013074388
156	0x3dafce3c	0.08584258
157	0x3ded83dc	0.11597416
158	0xbda0365f	-0.078228705
159	0xbd8f21d4	-0.06988874
160	0xbd2a4e70	-0.04157871
161	0xbd94fd58	-0.07274884
162	0x3d90f995	0.07078854
163	0x3d1ed5cc	0.03877811
164	0x3c76482c	0.015031856
165	0xbdb5c4d8	-0.088754356
166	0xbcccf2f3	-0.025018191
167	0xbe151169	-0.14557423
168	0xbe08dc23	-0.13365225
169	0x3e1a0d12	0.15044048
170	0x3e30ff70	0.17284942
171	0x3db65789	0.08903415
172	0xbdf297a0	-0.118453264
173	0x3dbeb6f0	0.09312236
174	0x3b9b9b8b	0.004748767
175	0x3e0e2c6a	0.1388413
176	0xbe38e6e8	-0.18056834
177	0x3e2cfd45	0.1689349
178	0xbddad8f8	-0.10685915
179	0xbd82862c	-0.063732475
180	0xbd2d8878	-0.042366475
181	0xbde74df3	-0.112941645
182	0xbdf1b6ed	-0.118024684
183	0xbd488275	-0.04895254
184	0x3dfe3219	0.12411899
185	0xbd69654c	-0.05698137
186	0xbe2b8330	-0.16749263
187	0xbe15feac	-0.14647931
188	0x3de36904	0.111040145
189	0xbdd5d92c	-0.10441813
190	0xbd9b961a	-0.07596989
191	0xbb0afca4	-0.0021207714
192	0xbcb1e529	-0.021715717
193	0x3e1bba5a	0.15207806
194	0xbcdf330a	-0.027246017
195	0x3e0e4380	0.13892937
196	0x3d6fa704	0.058508888
197	0x3d91be7e	0.071164116
198	0x3dd095e8	0.10184842
199	0xbd25f5f0	-0.040517747
200	0x3dfd3509	0.12363631
201	0x3dd87ef2	0.10571088
202	0xbc30de6f	-0.01079522
203	0xbce7623c	-0.028245084
204	0xbdde4592	-0.10853113
205	0x3d8fa4db	0.070138656
206	0x3dd0d81a	0.10197468
207	0xbdcfcf64	-0.101469785
208	0x3e2d89df	0.16947125
209	0xbda351a0	-0.07974553
210	0xbcb715c7	-0.022349251
211	0x3ce0f623	0.027461117
212	0xbdd56e46	-0.104214236
213	0xbc6b326e	-0.014355285
214	0x3db3e283	0.08783438
215	0x3d310045	0.043213148
216	0x3e1d2eae	0.15349838
217	0x3df6299b	0.12019654
218	0xbdb3596a	-0.08757289
219	0x3e04b376	0.12959084
220	0x3d5ab68e	0.053396754
221	0xbdd262fc	-0.10272786
222	0xbcf5832e	-0.029969778
223	0x3dc80e30	0.09768331
224	0x3d99cb42	0.075094715
225	0xbcfc3589	-0.030787246
226	0x3dfcc60c	0.12342462
227	0x3dae12fd	0.084997155
228	0x3e228040	0.15869236
229	0x3dc09ceb	0.0940493
230	0x3ab58e87	0.001385168
231	0x3da49597	0.080363445
232	0xbcf6cda4	-0.030127354
233	0xbd00d9d5	-0.03145774
234	0xbda7bcd2	-0.081903115
235	0x3da5731d	0.08078597
236	0x3e12c71b	0.14333765
237	0x3d86f1b4	0.0658907
238	0xbd580879	-0.052742455
239	0x3d2e21e0	0.042512774
240	0xbc778a02	-0.015108587
241	0x3a9c1c96	0.0011910375
242	0x3d2ba3ef	0.041904386
243	0x3dd8a9e3	0.10579278
244	0x3d8c0b1a	0.06838055
245	0x3e02a0f0	0.12756705
246	0x3e021476	0.12703118
247	0xbda34696	-0.079724476
248	0x3dfdfcbf	0.12401723
249	0x3dbac73d	0.09120033
250	0x3d78bf7b	0.060729485
251	0x3e18012b	0.14844196
252	0x3b2c5b34	0.0026299478
253	0x3c7e3c33	0.015517282
254	0x3dc6db4c	0.09709796
255	0x3c80e494	0.015733995

arith.constant6 f4 [3]
0	0x3c8e9687	0.017405761
1	0x3bc270f0	0.0059338734
2	0xbc9e2720	-0.019305766

arith.constant7 f4 [128]
0	0x3c853e6d	0.016265118
1	0x3cfdb7e8	0.030971482
2	0x3d4524a0	0.04813063
3	0xbc36be3c	-0.011153754
4	0x3d099bea	0.033595957
5	0x3c21a217	0.009865305
6	0xba1d95a8	-0.0006011375
7	0x3d24e4f6	0.040257417
8	0x3be90cfe	0.0071121445
9	0xba16b8bd	-0.0005749574
10	0xbc6675a9	-0.014066138
11	0x3a4d503d	0.0007832086
12	0x3ca0d402	0.019632343
13	0x3b4910f3	0.0030680269
14	0xba464081	-0.00075627124
15	0x3d549930	0.051903903
16	0x3bf47114	0.007459769
17	0x3c859196	0.016304772
18	0x3d4bc2e7	0.04974642
19	0xbc2855f0	-0.010274395
20	0x3cbad368	0.022805884
21	0x3cc81cbd	0.024427766
22	0x3d1e82fa	0.038699128
23	0xbc33f9fb	-0.010984893
24	0xbac10c4b	-0.0014728395
25	0xbc0f5852	-0.008749085
26	0x3ca4a055	0.020095984
27	0x3bc165a2	0.005902008
28	0x3d08aeca	0.033369817
29	0xbb88c563	-0.004173921
30	0x3d2265a4	0.039647713
31	0xbb7b3939	-0.0038333668
32	0xbc8ca80a	-0.017169971
33	0x3b8a3c61	0.0042186235
34	0x3d593851	0.053032223
35	0x3ccc9295	0.02497224
36	0x3d500555	0.050786335
37	0x3d04b655	0.032400448
38	0xbca12a55	-0.019673506
39	0x3c067643	0.008206907
40	0xb8331d18	-4.270402e-05
41	0x3d191dc3	0.0373819
42	0xbcce082a	-0.025150377
43	0x3d0cb093	0.03434808
44	0xbcb7a8e3	-0.022419399
45	0x3d01b31d	0.031664956
46	0x3cc1d57b	0.023661366
47	0xbb69880c	-0.0035634069
48	0x3c8bf3bf	0.017084
49	0x3c4dc7a3	0.012559804
50	0x3cc890ca	0.024483103
51	0x3d1a8133	0.03772087
52	0x3d5f817d	0.05456685
53	0x3c9478bf	0.018123982
54	0x3d12df5f	0.035857555
55	0x3ccbc00f	0.024871854
56	0xbbed3c83	-0.0072398796
57	0x3d062e4d	0.032759
58	0x3b9fd6ec	0.0048779156
59	0x3d0207c7	0.0317457
60	0x3b21a53d	0.002466514
61	0x3ca9f6cc	0.020747565
62	0xbbf187fa	-0.007370946
63	0x3c82cce9	0.01596685
64	0x3d77b4ec	0.060475275
65	0x3d385712	0.04500491
66	0x3c296592	0.010339158
67	0x3d67299f	0.056436177
68	0x3d1c6d9a	0.03819046
69	0x3c411cf6	0.01178669
70	0x3ab1a7ac	0.0013553998
71	0x3c2e3a64	0.010634039
72	0x3bd383b2	0.0064549083
73	0x3cf33789	0.029689567
74	0x3bb00a47	0.005372319
75	0x3bc34205	0.005958798
76	0xbbe96bc6	-0.0071234433
77	0xbc1b2414	-0.009469051
78	0x3cf5800f	0.02996829
79	0x3c87ce09	0.016577737
80	0x3c8a2b5c	0.016866378
81	0x3c196a1c	0.009363677
82	0x3d43585b	0.047691684
83	0x3c956436	0.01823626
84	0x3c0c217c	0.008552905
85	0x3d7a5c45	0.06112315
86	0x3d1be7b0	0.03806275
87	0x3d39a350	0.045321763
88	0x3b9e1fb4	0.0048255567
89	0x3d27e55d	0.040990222
90	0x3cbd8df8	0.023138985
91	0x3d08c2e5	0.03338899
92	0x3d0ee7ad	0.034888912
93	0xb9ec6032	-0.000450851
94	0x3c93c2b3	0.018037176
95	0x3c89dddc	0.016829424
96	0x3d27b1f7	0.040941205
97	0x3d2ebc02	0.042659767
98	0x3c963cea	0.018339593
99	0x3d535be3	0.051601302
100	0x3bf4799e	0.007460787
101	0xbb56d7e8	-0.0032782499
102	0xbba178ec	-0.004927745
103	0x3cbae67e	0.022814985
104	0x3ca45d09	0.020063894
105	0xba6bf1ea	-0.00090005866
106	0x3ce41f39	0.02784692
107	0xbb7393cf	-0.0037166958
108	0xbc819828	-0.015819624
109	0x3d0567d6	0.03256973
110	0x3c9157c3	0.017742043
111	0x3c0f4afa	0.008745903
112	0x3d432a87	0.04764798
113	0xbc5f3d16	-0.013625404
114	0x3ce3a7e3	0.027790016
115	0xbc56e634	-0.013116408
116	0x3d29b68e	0.041433863
117	0x3d28c83b	0.04120658
118	0xbc1ebb7b	-0.0096882535
119	0x3cf626c6	0.030047785
120	0x3d5f7594	0.05455549
121	0x3ca826a2	0.020526234
122	0x3b95a23e	0.00456646
123	0x3b6025ed	0.0034202293
124	0x3c3f186e	0.011663539
125	0x3ca24274	0.019807078
126	0x3b2e32ab	0.0026580493
127	0xbcc5c021	-0.024139466

sequential_2_1/batch_normalization_6_1/batchnorm/mul f4 [32]
0	0x3e012928	0.12613356
1	0x3e2d72f4	0.16938382
2	0x3ed1da15	0.40986696
3	0x3def45fb	0.116832696
4	0x3d18fcf2	0.037350602
5	0x3e0c357a	0.13692275
6	0x3d9ca859	0.07649297
7	0x3e26b6b6	0.16280636
8	0x3d88d6b1	0.06681574
9	0x3dd53182	0.104098335
10	0x3f9f5a42	1.244942
11	0x3d8831c2	0.066501155
12	0x4171cb9c	15.112209
13	0x3d65ff6b	0.05615179
14	0x3e52d776	0.20590004
15	0x3d87630b	0.06610688
16	0x3db844e0	0.08997512
17	0x4184e255	16.610514
18	0x3fa1a0b4	1.2627168
19	0x3ed669cf	0.418776
20	0x3e2f44ae	0.17116043
21	0x3e21aaa6	0.15787753
22	0x3d982d8b	0.07430562
23	0x3e5faeea	0.21844068
24	0x3e6e7db4	0.2329014
25	0x3ec2d881	0.38055804
26	0x3d3b24ed	0.045689512
27	0x3f0fa5b0	0.56112194
28	0x3e4845b9	0.19557847
29	0x3d8945f7	0.06702798
30	0x3e9efceb	0.31052336
31	0x3f92fcee	1.1483438

sequential_2_1/batch_normalization_6_1/batchnorm/sub f4 [32]
0	0xbea466f2	-0.3210979
1	0xbec1a3f9	-0.37820414
2	0xbdee627d	-0.11639879
3	0xbe94b508	-0.29044366
4	0xbf85f7b2	-1.0466216
5	0xbe9e55de	-0.30924886
6	0xbf2bef45	-0.6716197
7	0xbe513289	-0.20429434
8	0xbf70567a	-0.9388195
9	0xbecb2a0e	-0.39680523
10	0x3d482a48	0.048868448
11	0xbf82d03e	-1.02198
12	0x3e0fa494	0.14027625
13	0xbf804d39	-1.0023566
14	0xbeb07c74	-0.3446995
15	0xbf366ab9	-0.71256596
16	0xbece54ff	-0.40299222
17	0x3d9a2cee	0.07528101
18	0xbdab06c5	-0.083509006
19	0xbdec69d8	-0.115436256
20	0xbe60b03a	-0.21942225
21	0xbed6049a	-0.41800386
22	0xbf269def	-0.6508474
23	0xbdf7eb4c	-0.12105426
24	0xbe5f744d	-0.21821709
25	0x3d26c250	0.040712655
26	0xbf6a99be	-0.9164084
27	0xbe12fe6c	-0.14354867
28	0xbe4997a9	-0.1968676
29	0xbf6c0bae	-0.9220532
30	0xbe06b6bf	-0.1315565
31	0xbc036e98	-0.008021973

sequential_2_1/batch_normalization_7_1/batchnorm/mul f4 [64]
0	0x3f905831	1.1276914
1	0x3f792ff8	0.9733882
2	0x3f956b1d	1.1673313
3	0x3f592fdd	0.8483866
4	0x3f6d4b54	0.92693067
5	0x3f4a51ed	0.7903126
6	0x3f799235	0.9748872
7	0x3f9b63a7	1.2139786
8	0x3f70e66c	0.94101596
9	0x3f6ac88c	0.9171226
10	0x3f40d4a0	0.7532444
11	0x3f952850	1.1652927
12	0x3f7694a7	0.96320575
13	0x3f918ffd	1.1372067
14	0x3f76b293	0.9636623
15	0x3fc43c2b	1.5330862
16	0x400029d8	2.002554
17	0x3f93797d	1.152145
18	0x3f807191	1.0034658
19	0x3fab7a0e	1.3396623
20	0x3fc00766	1.5002258
21	0x3f73c8d1	0.95228297
22	0x3fcaf76c	1.5856757
23	0x3f827932	1.0193236
24	0x3f62365a	0.88364184
25	0x3f2bc768	0.67101145
26	0x3f3e8840	0.7442665
27	0x3fdd76df	1.7301902
28	0x3f8c4cc0	1.0960922
29	0x3f645a58	0.89200354
30	0x3fad597c	1.3542933
31	0x3f9aece0	1.2103539
32	0x3f48466c	0.78232455
33	0x3f8088f9	1.0041801
34	0x3fad6694	1.3546929
35	0x3f5434d4	0.8289311
36	0x3fd32a00	1.6497192
37	0x3f41e45a	0.7573906
38	0x3f9570b9	1.1675025
39	0x4001947d	2.024688
40	0x3f73f3ed	0.95294076
41	0x3f8b10f3	1.0864547
42	0x3f84f010	1.0385761
43	0x4036185e	2.8452373
44	0x3f9d84d9	1.2306167
45	0x3f8c5506	1.0963447
46	0x3fa26fc9	1.2690364
47	0x3f77c793	0.967889
48	0x3f50e27e	0.815956
49	0x3f3d6011	0.7397471
50	0x3f7062af	0.9390058
51	0x3fedd523	1.8580669
52	0x3f59d145	0.85084945
53	0x3fbdbea3	1.4823803
54	0x4046869f	3.1019666
55	0x3fb52676	1.4152362
56	0x3fdf49ef	1.7444438
57	0x3f60cf2e	0.8781613
58	0x3f9db788	1.2321634
59	0x400fa057	2.2441614
60	0x3fc907dc	1.5705523
61	0x3f80ebf8	1.0072012
62	0x3f3cc100	0.73731995
63	0x3f819cdc	1.0125995

sequential_2_1/batch_normalization_7_1/batchnorm/sub f4 [64]
0	0xbe8d5c77	-0.27609608
1	0xbf005cfc	-0.5014188
2	0xbea2953a	-0.31754476
3	0xbed30f3b	-0.41222557
4	0xbeaeafda	-0.3411854
5	0xbeaff249	-0.34364536
6	0xbe9a55d2	-0.301436
7	0xbeed690c	-0.46369207
8	0xbed9cb7c	-0.4253806
9	0xbee83c4b	-0.453585
10	0xbec75e00	-0.38938904
11	0xbee3adaa	-0.44468433
12	0xbecf16e3	-0.4044715
13	0xbea4b52a	-0.32169467
14	0xbf01131b	-0.5041978
15	0xbede42a4	-0.43410218
16	0xbece73a9	-0.40322617
17	0xbebc1f23	-0.36742505
18	0xbeabb0b0	-0.3353324
19	0xbee43a3a	-0.44575673
20	0xbee5c927	-0.4488003
21	0xbec49b84	-0.383999
22	0xbed79406	-0.4210512
23	0xbeaffb04	-0.34371197
24	0xbed7b61d	-0.4213113
25	0xbec5810e	-0.38575023
26	0xbf0e436b	-0.5557162
27	0xbf1a743d	-0.60333616
28	0xbeaada25	-0.33369556
29	0xbf03300c	-0.5124519
30	0xbed8f7f3	-0.4237667
31	0xbed8f838	-0.42376876
32	0xbe8a6a59	-0.27034262
33	0xbebc694e	-0.3679909
34	0xbeeac78c	-0.45855367
35	0xbee21d9c	-0.44163215
36	0xbf0fb5cd	-0.5613678
37	0xbec9746d	-0.39346638
38	0xbe833b94	-0.25631392
39	0xbf19d6b4	-0.60093236
40	0xbec7500b	-0.38928255
41	0xbeec7c05	-0.4618837
42	0xbec3997b	-0.38203034
43	0xbefc210f	-0.49243972
44	0xbe9b8788	-0.3037684
45	0xbeb3f003	-0.35144052
46	0xbeb582cc	-0.35451353
47	0xbf0071a8	-0.50173426
48	0xbec2936a	-0.38003093
49	0xbf107d60	-0.5644131
50	0xbebe7ca2	-0.37204462
51	0xbee3649a	-0.4441269
52	0xbec85137	-0.39124462
53	0xbf1fa33e	-0.6235846
54	0xbed0cc56	-0.40780896
55	0xbeea6930	-0.45783377
56	0xbf586d7b	-0.84542054
57	0xbedf3bcf	-0.43600318
58	0xbee53a8c	-0.4477123
59	0xbefb69bc	-0.49104106
60	0xbe9489fb	-0.2901152
61	0xbeea5ca5	-0.45773807
62	0xbeb9d6c6	-0.36296672
63	0xbe9ad42b	-0.30239996

sequential_2_1/batch_normalization_8_1/batchnorm/mul f4 [128]
0	0x3f1d1f9b	0.6137635
1	0x3f375e39	0.7162815
2	0x3fd9eff3	1.7026352
3	0x3f31affa	0.69409144
4	0x3fe851e9	1.8149997
5	0x3f5b57a0	0.8568058
6	0x3f49015a	0.7851769
7	0x401eafe1	2.4794848
8	0x3f0aca06	0.54214513
9	0x3f849cab	1.0360311
10	0x3f2a0015	0.66406375
11	0x3f9356cb	1.1510862
12	0x3f2bfa2a	0.67178595
13	0x3f26a7cf	0.65099806
14	0x3f2a2932	0.6646911
15	0x3ed84b1b	0.422448
16	0x3f924ba6	1.1429336
17	0x3f28851f	0.65828127
18	0x3f9ef13a	1.2417367
19	0x3f01da99	0.5072418
20	0x3f165ef2	0.58738625
21	0x3fbc45e3	1.4708828
22	0x3fea3fd6	1.8300731
23	0x3fc3f6e8	1.5309725
24	0x3f4dc43e	0.80377567
25	0x3f401b44	0.75041604
26	0x3f1ff4f6	0.62483156
27	0x3f345bb5	0.70452434
28	0x3f68e94f	0.90981
29	0x3fdef761	1.7419244
30	0x3f685684	0.9075701
31	0x3fe1dcd0	1.7645512
32	0x3f60cf01	0.8781586
33	0x3fc9ddb3	1.5770782
34	0x400ae8a0	2.1704483
35	0x3ec405d4	0.38285697
36	0x3f1eb882	0.62000287
37	0x3facbb77	1.349471
38	0x40026a1a	2.037726
39	0x3fd7c65b	1.6857408
40	0x3ffa2cd0	1.9544926
41	0x3f604754	0.8760884
42	0x3f466445	0.7749675
43	0x3f2760aa	0.6538187
44	0x3fc62993	1.5481437
45	0x3f89aba2	1.0755503
46	0x3f4bc648	0.7959943
47	0x3f440f65	0.7658599
48	0x401aa259	2.416159
49	0x3eeb701d	0.45983973
50	0x3fac4c14	1.3460717
51	0x3facb61f	1.3493079
52	0x3f1960c5	0.59913284
53	0x3f3bdb5e	0.733816
54	0x3f24ba98	0.6434722
55	0x3f65042e	0.894595
56	0x3f0649ad	0.5245617
57	0x3f0c8633	0.5489227
58	0x3ff3db0f	1.9051226
59	0x3f73979e	0.95153224
60	0x3f6258ff	0.8841705
61	0x3f86f1fb	1.0542597
62	0x3f6b9429	0.9202295
63	0x3f00c11c	0.5029466
64	0x3f459c5c	0.7719171
65	0x3fabe567	1.3429383
66	0x3f69defc	0.9135587
67	0x3ef24910	0.47321367
68	0x3f2bb740	0.6707649
69	0x3f79a6f3	0.9752037
70	0x3f12f173	0.5739967
71	0x3feec4d1	1.8653814
72	0x3f61f0b6	0.8825792
73	0x3f3ddd9d	0.7416628
74	0x3f25f9c3	0.6483423
75	0x3f3d7b50	0.74016285
76	0x3fa4c2bd	1.287193
77	0x3f91d82d	1.1394097
78	0x3eb2d0ec	0.3492502
79	0x3f5704ad	0.8399151
80	0x3ef26a85	0.47346893
81	0x3ffc3d7f	1.9706267
82	0x3f773058	0.9655814
83	0x3f85cff4	1.0454087
84	0x3f527831	0.8221465
85	0x3f4488c1	0.7677117
86	0x3fcf4af9	1.6194755
87	0x3f3d9fe6	0.7407211
88	0x3f9b790d	1.2146317
89	0x40002441	2.0022128
90	0x3f4f5364	0.8098662
91	0x3ee504c3	0.44730195
92	0x3f0f0fa0	0.55883217
93	0x3fb59f50	1.4189243
94	0x3f7f6934	0.997699
95	0x3f0a29db	0.53970116
96	0x3fac1502	1.3443911
97	0x3f03a2e1	0.5142041
98	0x3f400a13	0.7501537
99	0x3fb24115	1.3926111
100	0x3f9b8d8b	1.215257
101	0x3f874937	1.0569218
102	0x3f6f1a6e	0.93399704
103	0x3f301304	0.68779016
104	0x3facfe8c	1.3515182
105	0x3f867be8	1.0506563
106	0x3fb4aff5	1.4116198
107	0x3f53f4a8	0.8279519
108	0x3fc12b8d	1.5091416
109	0x3f333d1e	0.7001513
110	0x3f27b729	0.65513855
111	0x3f5d0f9c	0.86351943
112	0x3f05eda9	0.52315766
113	0x40065492	2.0989118
114	0x3edf6e40	0.43638802
115	0x3fa5cb5b	1.2952684
116	0x3fb9489a	1.4475281
117	0x3f8a0ee5	1.0785795
118	0x3f16e64d	0.5894516
119	0x3fa2f3b7	1.2730626
120	0x3fa558e1	1.2917749
121	0x3f5ae3d8	0.8550391
122	0x3ee25737	0.44207165
123	0x3fa4f9f0	1.2888775
124	0x3fdce966	1.7258728
125	0x3f696246	0.9116558
126	0x3ee3d8f8	0.44501472
127	0x3f93a43d	1.1534497

sequential_2_1/batch_normalization_8_1/batchnorm/sub f4 [128]
0	0xbed14f81	-0.4088097
1	0xbed733b6	-0.4203164
2	0xbef1f2af	-0.47255465
3	0xbe9a44f2	-0.30130726
4	0xbeaf3ec8	-0.34227586
5	0xbf1f57a6	-0.62243116
6	0xbea9b861	-0.33148482
7	0xbeced038	-0.40393233
8	0xbea41730	-0.3204894
9	0xbebe2322	-0.3713618
10	0xbe9ec6d8	-0.3101108
11	0xbec64ebf	-0.38731954
12	0xbebaf7b1	-0.365171
13	0xbeb21da5	-0.34788242
14	0xbed50120	-0.4160242
15	0xbf054931	-0.52064806
16	0xbe94e4ec	-0.29080904
17	0xbeae42dd	-0.34035388
18	0xbee2c5c1	-0.442915
19	0xbf110d61	-0.5666104
20	0xbed4c515	-0.41556612
21	0xbeee9739	-0.4659975
22	0xbf0a6381	-0.5405808
23	0xbe8a7b48	-0.2704718
24	0xbeec4bed	-0.46151677
25	0xbeb58055	-0.35449472
26	0xbef9eba3	-0.4881259
27	0xbec92073	-0.3928257
28	0xbec7478e	-0.3892178
29	0xbf2afcb2	-0.6679183
30	0xbe9797a1	-0.2960787
31	0xbee93010	-0.4554448
32	0xbf521a14	-0.8207104
33	0xbf000036	-0.5000032
34	0xbea03188	-0.3128779
35	0xbf203c0f	-0.6259164
36	0xbf0ecd73	-0.5578224
37	0xbf1354fb	-0.57551545
38	0xbe87c622	-0.2651835
39	0xbeb18f3b	-0.3467959
40	0xbeae17b8	-0.3400247
41	0xbe85a3fd	-0.26101676
42	0xbe8152de	-0.25258535
43	0xbeb96d64	-0.3621627
44	0xbf30a2f9	-0.68998677
45	0xbeaadaa7	-0.33369943
46	0xbead4506	-0.33841723
47	0xbeb2d877	-0.34930775
48	0xbe844ce5	-0.25839916
49	0xbe8dcde6	-0.2769615
50	0xbf2c4783	-0.6729662
51	0xbf212594	-0.62947965
52	0xbed83dd4	-0.4223467
53	0xbef21b18	-0.47286296
54	0xbeb4ccf5	-0.3531262
55	0xbe991d1a	-0.29905015
56	0xbf1faa54	-0.62369275
57	0xbec42f9a	-0.38317567
58	0xbef6afbe	-0.48180956
59	0xbec18fbe	-0.3780498
60	0xbea5bbf4	-0.3236996
61	0xbede8f64	-0.43468773
62	0xbed435d5	-0.4144732
63	0xbeae793d	-0.34076872
64	0xbeacec28	-0.33773923
65	0xbf23469b	-0.6377961
66	0xbeca55e2	-0.39518648
67	0xbeb1cc60	-0.34726238
68	0xbeb60c22	-0.35556132
69	0xbee071f4	-0.4383694
70	0xbf043660	-0.5164547
71	0xbe915ef8	-0.28392768
72	0xbe958edf	-0.29210564
73	0xbf2db57c	-0.6785505
74	0xbe9f4368	-0.31106114
75	0xbebe26ea	-0.37139064
76	0xbf35523c	-0.70828605
77	0xbf02b092	-0.51050675
78	0xbf3011de	-0.68777263
79	0xbeb0eff5	-0.34558073
80	0xbea8880e	-0.329163
81	0xbf162495	-0.5864957
82	0xbeae3129	-0.3402188
83	0xbeb1e48c	-0.3474468
84	0xbf1e0d70	-0.61739254
85	0xbf0ce817	-0.5504164
86	0xbf2df9fd	-0.67959577
87	0xbecab3a8	-0.39590192
88	0xbed0a55c	-0.4075116
89	0xbea6273c	-0.32451808
90	0xbec184dc	-0.37796676
91	0xbece4e85	-0.4029428
92	0xbecd4620	-0.40092564
93	0xbf3dd653	-0.7415516
94	0xbea5a5b2	-0.32352978
95	0xbe993b4b	-0.2992805
96	0xbea3fd57	-0.3202922
97	0xbee79734	-0.45232546
98	0xbed999a9	-0.42500046
99	0xbf24b85b	-0.64343804
100	0xbee0d29c	-0.43910682
101	0xbea9e52e	-0.33182663
102	0xbef2986d	-0.47381917
103	0xbe99e8cf	-0.3006043
104	0xbf257ec6	-0.64646566
105	0xbe937137	-0.28797314
106	0xbf286c1c	-0.6578996
107	0xbed25ab7	-0.41084835
108	0xbe87eef5	-0.26549497
109	0xbf3e5cc3	-0.74360293
110	0xbf09c5ee	-0.5381764
111	0xbf2b8fec	-0.6701648
112	0xbf021efc	-0.5082853
113	0xbe7f0306	-0.24903497
114	0xbf18485a	-0.594854
115	0xbe8a27e4	-0.2698356
116	0xbea1c4f9	-0.3159559
117	0xbe8e4034	-0.27783358
118	0xbeb5a0dd	-0.3547429
119	0xbf2c1a4c	-0.67227626
120	0xbe981a01	-0.2970734
121	0xbec09803	-0.37615976
122	0xbf2a3c3e	-0.6649817
123	0xbf259fa1	-0.646967
124	0xbe9c1684	-0.30485928
125	0xbee445f6	-0.44584626
126	0xbef6c356	-0.48195904
127	0xbf02da3e	-0.5111426
